TrainData.pth (torch, 16668 bytes, 6 tensors)

l1.weight f4 [8, 235]
0	0x3f40845c	0.75201964
1	0xbe972213	-0.29518184
2	0x3e486cf8	0.19572818
3	0x3fd5a6fc	1.6691585
4	0x3fd445d2	1.6583807
5	0xbdefde41	-0.117123134
6	0xbe231c59	-0.15928783
7	0x3fe51283	1.7896274
8	0x3f6e2c26	0.93036115
9	0xbe2c2126	-0.1680952
10	0x3f926625	1.1437422
11	0xbeb8ecf6	-0.36118287
12	0x3f365c34	0.7123444
13	0x3f887aea	1.066251
14	0x3d99892b	0.07496866
15	0x3ecad314	0.39614165
16	0x3fce0caa	1.6097615
17	0xbe27225d	-0.16321702
18	0xbeadd460	-0.33951092
19	0x3f202d94	0.62569547
20	0x3f2b2775	0.6685708
21	0xbe15f341	-0.14643575
22	0x3fc8d02b	1.5688528
23	0xbe053173	-0.13007145
24	0x3f421db9	0.75826603
25	0x3f636bdc	0.88836455
26	0x3fca3063	1.5796016
27	0x3fcdd90c	1.6081862
28	0x3f8a7a26	1.0818527
29	0xbec589f9	-0.38581827
30	0x3f1b3695	0.6063016
31	0x3f7dd71c	0.99156356
32	0x3f3280e9	0.6972795
33	0xbf2fcfd6	-0.6867651
34	0x3f86d86d	1.0534798
35	0xbfad6d25	-1.3548933
36	0x3f4f3c78	0.80951643
37	0x3e19cc02	0.15019229
38	0xbe80a3fa	-0.25125104
39	0xbe4d69bb	-0.20059864
40	0x3fd6ce08	1.6781626
41	0x3f8f4212	1.1192038
42	0x3f51433a	0.81743205
43	0x3fd3ceeb	1.6547521
44	0x3f51c3ec	0.8193958
45	0xbe9fae2a	-0.31187564
46	0xbfa58d75	-1.2933794
47	0xbf9863c7	-1.190545
48	0x3f8b9ec4	1.0907826
49	0xbed226cd	-0.41045228
50	0x3f85532a	1.0416005
51	0xbf9f186f	-1.2429332
52	0x3fbcd5bc	1.4752727
53	0x3fba88b7	1.4572972
54	0x3e305ec6	0.17223653
55	0x3fc82b81	1.5638276
56	0x4012ceef	2.2938802
57	0xbca7a04c	-0.020462178
58	0x3faabfdb	1.33398
59	0xbfe2d86f	-1.77223
60	0x3f347da1	0.70504194
61	0x3e98ed4a	0.29868537
62	0x3eb6ba52	0.35689026
63	0x401c76e9	2.4447577
64	0x3faf8412	1.371218
65	0x3f54d98c	0.8314445
66	0x3f00f8b9	0.5037952
67	0x3f17c893	0.59290427
68	0x3fcdbc18	1.6073027
69	0xbea5fe84	-0.32420743
70	0x3ff83c27	1.9393357
71	0x3f44ed22	0.76924336
72	0x3f7ffb1c	0.9999254
73	0x3e6abeac	0.22924298
74	0xbe825a09	-0.25459316
75	0xbf39d71e	-0.7259387
76	0x3fd0e15c	1.6318774
77	0xbf3c8083	-0.73633593
78	0xbee9879a	-0.45611268
79	0xbd65172f	-0.055930313
80	0xbf2f44c2	-0.6846429
81	0x3fa467c2	1.2844164
82	0x3e0caa65	0.13736875
83	0x3f5f3dd1	0.872037
84	0x3f93b1a8	1.1538591
85	0x3ff9f6fa	1.9528496
86	0xbf8747d2	-1.0568793
87	0xbebf1580	-0.3732109
88	0xbed1d690	-0.4098401
89	0xbed1d584	-0.40983212
90	0x3fffe363	1.9991268
91	0xbe9b2b69	-0.30306557
92	0x3fdeb6cf	1.7399539
93	0xbf03bd83	-0.51461047
94	0x3f4aaa91	0.79166514
95	0x3f9fbbc4	1.2479177
96	0xbdd8ea5d	-0.10591576
97	0x3f4bf74c	0.7967422
98	0x3e722930	0.23648524
99	0x3ea627e9	0.32452324
100	0x3e2093f3	0.15681438
101	0xbe0baf00	-0.13640976
102	0x3f723e86	0.94626653
103	0x3e84b833	0.25921783
104	0x3f7f4978	0.9972148
105	0xbef48fa1	-0.4776583
106	0xbdc7ece5	-0.09761981
107	0x3f32141e	0.69561946
108	0x3f5b6cea	0.85713065
109	0x3f854f88	1.0414896
110	0x3f46b76f	0.7762365
111	0x3f80f883	1.007584
112	0x3f8a89dc	1.0823321
113	0x3f2966be	0.661724
114	0x3feb0fb7	1.8364171
115	0xbcd3e4e8	-0.025865987
116	0x3f42ace9	0.7604509
117	0x3edaabc9	0.42709187
118	0x3f910e3a	1.1332467
119	0x3fa0cff9	1.2563468
120	0x40004173	2.0039947
121	0xbf550fbb	-0.8322713
122	0x4009f93d	2.1558373
123	0x3f1ddc6f	0.6166448
124	0xbf4498b3	-0.767955
125	0xbf6f6ed9	-0.93528515
126	0xbf208b64	-0.62712693
127	0xbf9ce481	-1.2257234
128	0x3f142a37	0.57876915
129	0x3cfab5ed	0.030604327
130	0x402469ee	2.5689654
131	0x40234554	2.5511065
132	0x3f35436e	0.70806015
133	0x3f9f920d	1.2466446
134	0xbee71c49	-0.45138767
135	0x3f49033f	0.7852058
136	0x3f790bd6	0.97283685
137	0x3f455122	0.77076924
138	0xbebd2dd6	-0.36949033
139	0xbdaf3468	-0.085549176
140	0x3fc93e0a	1.5722058
141	0x3f4e8782	0.8067552
142	0x3f7840fe	0.9697417
143	0xbfa7b270	-1.310133
144	0x400d3ee3	2.2069633
145	0xbe9ae7c6	-0.30254954
146	0x3e50aab0	0.20377612
147	0x3e66d535	0.2254227
148	0x4035912b	2.8369853
149	0xbe70d220	-0.23517656
150	0x3f8963f1	1.0733625
151	0x3f4b9e11	0.79538065
152	0x3f4bdaa0	0.7963047
153	0x3f5cd246	0.8625835
154	0xbf422c01	-0.75848395
155	0x3d251d4d	0.040311147
156	0x400be203	2.1856697
157	0x3f333b04	0.70011926
158	0xbc22b9e1	-0.009932012
159	0x3ef9d698	0.48796535
160	0x3f75cd24	0.96016145
161	0x40003bdf	2.0036542
162	0x3f6c906c	0.9240787
163	0x3f60f53c	0.878742
164	0x3f82f197	1.0229977
165	0x3ff3febe	1.9062116
166	0x3e8a1432	0.26968533
167	0x3f59dd5a	0.8510338
168	0x3fbaf6d5	1.4606577
169	0x3f233766	0.63756406
170	0xbe79b9d8	-0.243873
171	0x3f817e8c	1.0116744
172	0x3fc07d4b	1.5038236
173	0x3e469746	0.19393644
174	0x3ff7bba5	1.935414
175	0xbf21e6e2	-0.63242924
176	0xbf9ee1ed	-1.2412697
177	0xbed76dd8	-0.42075992
178	0x3f4de9a1	0.80434614
179	0x3ebe8661	0.37211898
180	0x3fcc8ff7	1.5981435
181	0xbf1a6f54	-0.60326123
182	0x3fd40024	1.6562543
183	0xbf43c796	-0.7647642
184	0x3f974d44	1.1820455
185	0x3f4339df	0.7626018
186	0xbedf1fce	-0.43578953
187	0xbe85c428	-0.26126218
188	0x3f44743f	0.7673988
189	0xbecd79a7	-0.40131876
190	0xbf9ee439	-1.2413398
191	0x3dbadac2	0.09123756
192	0x3f9b20f9	1.2119437
193	0x3f10521a	0.5637528
194	0x40288c1e	2.633552
195	0x3f48ad14	0.78389096
196	0x3e0d303e	0.13787934
197	0xbe9f6c79	-0.31137446
198	0xbdc946dc	-0.098279685
199	0x3f293fdb	0.6611306
200	0x4009738d	2.1476777
201	0x3feef113	1.866732
202	0x3d031903	0.032006275
203	0xbeb91034	-0.36145175
204	0x3f378770	0.71691036
205	0xbfd31a88	-1.6492472
206	0x3f728391	0.94732004
207	0xbeb619d9	-0.35566595
208	0xbdb8e303	-0.09027674
209	0x3edeea42	0.435381
210	0x3f475519	0.77864224
211	0x402b28b7	2.67436
212	0x3ff7bdf7	1.9354848
213	0xbf9b2cad	-1.2123009
214	0xbe347fed	-0.17626925
215	0x3fbbbdd8	1.4667311
216	0x3e9c65cb	0.30546412
217	0x3c4fadb6	0.012675693
218	0x3f9db1fb	1.231994
219	0xbed7eb43	-0.42171678
220	0x3ef5118c	0.4786495
221	0x3e636a19	0.22208442
222	0x4001dc2a	2.0290627
223	0x3efae2d6	0.49001187
224	0x3ed98bbc	0.4248942
225	0xbe475d15	-0.19469102
226	0xbf1432e6	-0.57890165
227	0x3f336418	0.70074606
228	0x3f6b1bf9	0.9183956
229	0x3f7ea6fd	0.99473554
230	0xbdd83dbf	-0.10558652
231	0xc0100ff7	-2.2509744
232	0xbc95a914	-0.0182691
233	0x3f90fbfd	1.1326901
234	0x401a0d75	2.4070714
235	0x3f54e405	0.8316043
236	0x3e524c6e	0.20536968
237	0x3e7d77aa	0.2475268
238	0xbf0bcbe7	-0.54608005
239	0x3d96262b	0.07331499
240	0x3e433084	0.19061476
241	0x3e6ad7f2	0.22933939
242	0xbf8badfc	-1.0912471
243	0x3ff78dd2	1.9340155
244	0xbfce565d	-1.6120106
245	0x3f5aadc9	0.85421425
246	0x3f9f8427	1.2462205
247	0x3f551786	0.8323902
248	0x3d8f5b9b	0.06999894
249	0x3fa2ca04	1.27179
250	0x3e443f3c	0.19164747
251	0x3f2cdf0d	0.6752785
252	0x3e691504	0.22761923
253	0x3f51a543	0.81892794
254	0x3f236c1a	0.63836825
255	0x3f70126e	0.9377812

l1.bias f4 [8]
0	0x3f9c35e6	1.2203948
1	0x3f52eda2	0.8239385
2	0x3fc29209	1.5200816
3	0x3f95906a	1.1684697
4	0x3f93bef4	1.1542649
5	0x3f6fc3ae	0.9365796
6	0x3f57ad51	0.84248835
7	0x3f72713d	0.9470404

l2.weight f4 [8, 8]
0	0x403868be	2.881393
1	0x3ed7e435	0.42166296
2	0x4008ca6a	2.1373544
3	0x3f93c72b	1.1545156
4	0xbf4bd6f4	-0.7962487
5	0xbea0088d	-0.31256524
6	0xbf3260c6	-0.69678915
7	0xbff7a5b5	-1.9347445
8	0x3f3e8917	0.7442793
9	0x402d4769	2.7074835
10	0x4000b990	2.0113258
11	0xbfcabec8	-1.5839472
12	0xbffa90f6	-1.9575489
13	0x40530c8b	3.2976406
14	0xbd98053d	-0.07422874
15	0x3f5e88ba	0.8692738
16	0x3fc1b45a	1.5133164
17	0x400e75c8	2.2259388
18	0xbe8a1d6b	-0.2697557
19	0x403e6b0e	2.975284
20	0x3eb8cdeb	0.36094603
21	0x3f26cbd2	0.65154755
22	0x4036e30b	2.8576076
23	0xbfe0a6f7	-1.7550954
24	0xc0067bfe	-2.101318
25	0x3f162ac9	0.58659035
26	0x3fe6d39b	1.8033327
27	0x3f4df19b	0.80446786
28	0x3e959633	0.29216155
29	0xbf09a2fb	-0.53764313
30	0x402ad40c	2.6691923
31	0x3fbb7835	1.4646059
32	0x40101751	2.2514231
33	0x3f361a8e	0.7113427
34	0xbd1fb628	-0.038992077
35	0xbe9ec075	-0.31006208
36	0x40047358	2.06954
37	0xc003cab1	-2.0592463
38	0x3cc4435e	0.023957904
39	0x3fa89335	1.3169924
40	0x3dbcc610	0.09217465
41	0xbe091095	-0.13385232
42	0xbe63de90	-0.2225287
43	0xbe893d13	-0.26804408
44	0xbe869efa	-0.26293164
45	0xbe0d2079	-0.13781919
46	0x3d55ba98	0.052179903
47	0xbe2b4a4c	-0.16727561
48	0xbf15db47	-0.58537716
49	0xc00c7035	-2.1943486
50	0x4010ee46	2.264543
51	0x402e8ae7	2.727228
52	0x3d472962	0.04862345
53	0x3fb19567	1.3873719
54	0xbf9e2570	-1.2355175
55	0x3fb84544	1.4396138
56	0x3f3d0dec	0.7384937
57	0xbf779c13	-0.96722525
58	0x3f8b3197	1.0874509
59	0xbf8d4bbc	-1.1038737
60	0x4015ef1b	2.3427188
61	0x3e3b8a1f	0.18314408
62	0xbf1bc2a9	-0.608439
63	0x4017ea69	2.3736823

l2.bias f4 [8]
0	0x3f1cdeb6	0.6127733
1	0x3f1b3e73	0.60642165
2	0x3f2acf09	0.6672216
3	0xbe2a3b9a	-0.16624299
4	0x3f485fdd	0.78271276
5	0xbe8582fd	-0.260765
6	0x3f51a91f	0.81898683
7	0x3f38f1f4	0.7224419

l3.weight f4 [63, 8]
0	0xc0b0d290	-5.5257034
1	0xbe29138a	-0.1651136
2	0xbe1c4efa	-0.15264502
3	0x3f1071af	0.5642347
4	0xbe0c0863	-0.13675074
5	0x3e68dd0a	0.2274057
6	0xc0737676	-3.8041053
7	0x3cef4ea7	0.029212309
8	0x3e10e80e	0.14151022
9	0x3ea86f97	0.32897636
10	0x3da08aac	0.078389496
11	0xbd08b814	-0.033378676
12	0xbf401a8c	-0.7504051
13	0xbd04f5b8	-0.0324609
14	0xc0c63169	-6.1935315
15	0xbf26b3b0	-0.6511793
16	0xbf1a55a7	-0.60286945
17	0xbfc84284	-1.5645299
18	0x3f199662	0.5999509
19	0x3f4399d9	0.7640663
20	0xbdd2ee3a	-0.10299344
21	0xbe8326e6	-0.25615615
22	0xc0bf62a4	-5.980791
23	0xbfbfbe48	-1.4979944
24	0xc0aa7594	-5.326853
25	0xbf96732b	-1.1753896
26	0xbea848de	-0.32868093
27	0xbf911609	-1.133485
28	0xbe0fdc7f	-0.14048956
29	0x3e036350	0.12830853
30	0x3f3639c2	0.7118188
31	0x3ef3567f	0.4752693
32	0x3f8c6ed9	1.0971328
33	0x3f854b5b	1.0413622
34	0xbf331428	-0.6995263
35	0xc0686c75	-3.6316197
36	0xbfefaada	-1.8724015
37	0x3e832d21	0.25620368
38	0xbfb9a4e6	-1.4503448
39	0xbfcd957f	-1.6061248
40	0xc002fe6b	-2.0467784
41	0xc0ab882b	-5.360372
42	0x3f61e504	0.88240075
43	0x3d328be6	0.04359045
44	0x3d871deb	0.06597503
45	0x3e862ea7	0.26207468
46	0xbf795532	-0.9739562
47	0xbf9bd88d	-1.2175461
48	0xc0ad2a27	-5.4113955
49	0x3fbd17d4	1.4772897
50	0xbe99f9f6	-0.30073518
51	0xbfa52e37	-1.2904729
52	0xbee598e7	-0.44843218
53	0xbe05616a	-0.13025442
54	0xc0035ca3	-2.052529
55	0xbe167a71	-0.14695145
56	0x3e8cd588	0.2750666
57	0x3eec06cf	0.46098945
58	0xc05d0dd9	-3.4539702
59	0xbddf7644	-0.10911229
60	0xbf4a40c9	-0.79005104
61	0xbde4285e	-0.11140512
62	0xbe75519b	-0.23956911
63	0xbea02de5	-0.31285015
64	0xc07627dc	-3.8461828
65	0xbf9b8882	-1.2151034
66	0xc04172c3	-3.0226295
67	0x3f6c9231	0.9241057
68	0xbef14284	-0.4712106
69	0x3c93e6d0	0.018054396
70	0x3dd0cf58	0.10195798
71	0x3e72c6b4	0.23708612
72	0x3eb8f985	0.36127868
73	0x3f78912f	0.9709653
74	0x3cdc222d	0.026871765
75	0xbfa4f890	-1.2888355
76	0xc0907f3d	-4.515532
77	0x3eb4d603	0.35319528
78	0xbeea5e5d	-0.45775118
79	0xc09a5fb9	-4.824185
80	0xbe0c8f57	-0.13726555
81	0xbfc74126	-1.5566757
82	0xbfeaccb0	-1.8343716
83	0xc0b15f05	-5.542849
84	0x3f13293a	0.5748478
85	0x3e93a957	0.28840134
86	0xbddd549d	-0.10807154
87	0x3f23e5a5	0.64022285
88	0x3f0afcfc	0.54292274
89	0xc0735800	-3.802246
90	0x3e912409	0.28347805
91	0xc0aefecc	-5.468603
92	0x3ee9b73b	0.45647606
93	0xbd8dbdd4	-0.069209725
94	0xbfa33d3d	-1.2753063
95	0x3dd6a574	0.104807764
96	0xc0689e15	-3.6346486
97	0xc066760e	-3.6009555
98	0xbf334702	-0.70030224
99	0x3f9aa71e	1.208225
100	0xbe78af9b	-0.24285738
101	0xbe04d905	-0.12973411
102	0xbf12d47e	-0.5735549
103	0x3dd101dd	0.102054335
104	0xbf9721b8	-1.1807165
105	0xc01ea65d	-2.478904
106	0x3f4a3f3e	0.7900275
107	0x3f8a7c8a	1.0819256
108	0xc00e1ced	-2.2205155
109	0x3e0c0576	0.13673958
110	0xbe589790	-0.21151567
111	0xc04e8c89	-3.2273276
112	0x3e03b2d0	0.1286118
113	0xc07c3364	-3.9406366
114	0xbd2217c0	-0.03957343
115	0xbe47c3e4	-0.1950832
116	0x3e662968	0.22476733
117	0xbe0da3ba	-0.13831988
118	0xbfb78815	-1.4338404
119	0xbe177288	-0.14789784
120	0xbf3fcdbc	-0.749233
121	0x3f929ca6	1.1454055
122	0xbf9ba7f6	-1.2160633
123	0xbff9d404	-1.9517827
124	0xbfa1496a	-1.2600529
125	0xbe1debe1	-0.15422012
126	0x3e502e76	0.20330223
127	0xbe9fd911	-0.31220296
128	0x3fb7590f	1.4324054
129	0x3d91c45b	0.0711753
130	0xbed179f9	-0.4091337
131	0xc0974b79	-4.727963
132	0x3dae98f6	0.08525269
133	0xbe801212	-0.25013787
134	0xc014e3b4	-2.326398
135	0xbfe354f7	-1.7760304
136	0x3f4e8bea	0.8068224
137	0xc00cbf47	-2.1991746
138	0x3e16a757	0.14712273
139	0xc0ad3c00	-5.413574
140	0xbeddae74	-0.4329716
141	0xbd502c60	-0.05082357
142	0x3f1f860e	0.62313926
143	0xbebd8fff	-0.37023923
144	0xbc9eb8a4	-0.019375153
145	0x3dc23e16	0.09484498
146	0xbfde0d08	-1.7347727
147	0xbed1da04	-0.40986645
148	0xc014786a	-2.3198495
149	0x3e44b41e	0.19209334
150	0x3f8186eb	1.0119299
151	0xbeac7044	-0.33679402
152	0xbfbb52ef	-1.4634684
153	0x3e84b0ec	0.2591623
154	0x3e7522dd	0.2393908
155	0x3e253496	0.16133341
156	0xbf20f240	-0.62869644
157	0xbd6fd7f0	-0.058555543
158	0xbe1c6c8f	-0.15275787
159	0xbfb58802	-1.4182131
160	0xbea9b018	-0.3314216
161	0x3f41fc4a	0.7577559
162	0x3f669476	0.90070283
163	0xc06a0fa5	-3.6572049
164	0xbf787174	-0.97048116
165	0x3e173916	0.1476787
166	0xc012f2a7	-2.2960603
167	0xbfd910de	-1.6958272
168	0xbf426866	-0.7594055
169	0xbf121167	-0.57057804
170	0xbffbc6b9	-1.967002
171	0xbfc425e7	-1.5324067
172	0xbeb4715f	-0.35242745
173	0xba264800	-0.00063431263
174	0x3f3794dc	0.71711516
175	0x3ef12fbc	0.4710673
176	0xbf38285f	-0.719366
177	0xbdf5df56	-0.120054886
178	0xbf4be21c	-0.7964189
179	0xbf1b10ff	-0.6057281
180	0x3f023847	0.5086712
181	0x3dd770c4	0.10519555
182	0xc0b21d2e	-5.566062
183	0x3dc828ae	0.09773384
184	0x3eb9e8da	0.36310464
185	0x3f31b715	0.69419986
186	0xbe59de98	-0.21276319
187	0xbe2f25b0	-0.1710422
188	0xbffba07e	-1.9658353
189	0xbe09472f	-0.1340606
190	0xbf8f068a	-1.117387
191	0xbfa2142e	-1.2662408
192	0xc0509c74	-3.2595491
193	0xbfe236c8	-1.7672968
194	0xbfd9419c	-1.6973147
195	0xbd82cf0f	-0.063871495
196	0xbfc0bdc6	-1.5057914
197	0xbe6ae6c2	-0.2293959
198	0x3fc5ed97	1.5463132
199	0x3e87416c	0.264171
200	0x3f29db1d	0.66349965
201	0x3ed28d0d	0.41123238
202	0xbf70ad8a	-0.940148
203	0xc0749ca8	-3.8220615
204	0xc06fa7e2	-3.7446218
205	0xbe1d2806	-0.15347299
206	0x3f18c53d	0.5967596
207	0xbe38a377	-0.18031107
208	0xbffbeeb3	-1.968222
209	0xc08c19cf	-4.3781505
210	0xc01c93b9	-2.4465163
211	0xbeb44223	-0.35206708
212	0x3e6ef9f9	0.23337545
213	0x3e9eb38f	0.30996367
214	0x3f4adbf7	0.7924189
215	0x3f3ed963	0.74550456
216	0xbf9ca679	-1.2238303
217	0x3f86f6eb	1.0544103
218	0xbfa30cc0	-1.2738266
219	0x3ea5f15d	0.32410708
220	0xc0889887	-4.268619
221	0x3eb296bb	0.34880623
222	0xbed74ad3	-0.42049274
223	0xbee535c2	-0.44767576
224	0xbebf77f8	-0.37396216
225	0x3ec7fa52	0.39058167
226	0xbf52d8bd	-0.82361966
227	0xbe9e8623	-0.30961713
228	0xbe747565	-0.23872907
229	0xbe50067a	-0.2031497
230	0xbf8fade3	-1.1224941
231	0xbeb72a84	-0.35774624
232	0xbfed735e	-1.8550832
233	0x3f889251	1.0669652
234	0xc06f2fcc	-3.7372923
235	0xbeac4c60	-0.3365202
236	0xc062aebb	-3.5419147
237	0x3c18ff60	0.00933823
238	0x3f5d667b	0.864845
239	0xbde7fedc	-0.113279074
240	0xbfe2d779	-1.7722007
241	0x3f91f4b8	1.1402807
242	0x3ee0ab11	0.43880513
243	0xbde6444a	-0.11243494
244	0xc0800d07	-4.0015903
245	0x3e5cd0da	0.21564046
246	0xc036cdad	-2.8563035
247	0xc004cca7	-2.074991
248	0xbd488fe5	-0.048965354
249	0xbf7189f6	-0.94351137
250	0xbe9a0c38	-0.30087447
251	0xc00713d7	-2.110586
252	0x3f0b3a48	0.54385805
253	0xbeae0083	-0.33984765
254	0xbef3602a	-0.47534305
255	0xbe9d1e5d	-0.30687228

l3.bias f4 [63]
0	0xbf05dfa3	-0.5229437
1	0x3dad0930	0.08449018
2	0xbe811a73	-0.25215492
3	0xbe9c1b18	-0.3048942
4	0xbf35a440	-0.7095375
5	0x3effe118	0.4997642
6	0x3e4173b0	0.18891788
7	0xbeeeeb31	-0.46663812
8	0xbe347c75	-0.17625602
9	0xbeaac330	-0.3335204
10	0x3c8ae06c	0.016952716
11	0x3e029add	0.12754388
12	0x3ebb7009	0.36608914
13	0x3e3861c9	0.18006052
14	0xbdcd0088	-0.10009867
15	0x3e97c877	0.2964513
16	0xbeb03159	-0.3441265
17	0x3eec5043	0.46154985
18	0x3f27b25c	0.6550653
19	0x3d67f799	0.056632612
20	0x3f3de272	0.74173653
21	0x3f0cf63d	0.5506323
22	0xbe755a75	-0.23960288
23	0xbf1cf027	-0.61303943
24	0x3da92ef8	0.08260912
25	0xbf12e238	-0.5737643
26	0xbda293f2	-0.079383746
27	0xbecc0846	-0.39850062
28	0xbee64f9a	-0.44982606
29	0xbe206f5c	-0.1566748
30	0xbd668431	-0.05627841
31	0x3d02de90	0.031950533
32	0xbebec55b	-0.37259945
33	0xbe29d358	-0.16584527
34	0x3d98b673	0.074566744
35	0xbf1559ae	-0.58339965
36	0xbed45731	-0.41472772
37	0x3ec3d853	0.3825098
38	0xbf49fe71	-0.7890387
39	0xbe9cf71c	-0.3065728
40	0x3ed6b68f	0.41936156
41	0x3d60753e	0.05479931
42	0xbfaefdc9	-1.3671199
43	0xbf89c26d	-1.0762459
44	0xbc0b2d21	-0.008494646
45	0xbc4ee937	-0.012628845
46	0xbea72416	-0.3264472
47	0xbed21812	-0.4103399
48	0x3e1418b8	0.14462554
49	0xbe7e4866	-0.24832305
50	0xbea1240b	-0.3147281
51	0x3e237d4b	0.15965764
52	0x3eece7b4	0.46270525
53	0xbdedf2c5	-0.1161857
54	0x3dd9f4e5	0.10642413
55	0xbe4b52fa	-0.19855872
56	0xbeea4ccb	-0.45761713
57	0xbd12b213	-0.035814356
58	0xbf17913b	-0.5920598
59	0xbe137644	-0.14400584
60	0x3ebecaa5	0.3726398
61	0xbc6cb480	-0.014447331
62	0xbfab48f6	-1.3381641
